Layer (type)                    Output Shape         Param #     Connected to                     
==================================================================================================
input_1 (InputLayer)            [(None, 256, 128, 3) 0                                            
__________________________________________________________________________________________________
conv2d (Conv2D)                 (None, 128, 64, 64)  9408        input_1[0][0]                    
__________________________________________________________________________________________________
batch_normalization (BatchNorma (None, 128, 64, 64)  256         conv2d[0][0]                     
__________________________________________________________________________________________________
activation (Activation)         (None, 128, 64, 64)  0           batch_normalization[0][0]        
__________________________________________________________________________________________________
max_pooling2d (MaxPooling2D)    (None, 64, 32, 64)   0           activation[0][0]                 
__________________________________________________________________________________________________
conv2d_1 (Conv2D)               (None, 64, 32, 64)   4096        max_pooling2d[0][0]              
__________________________________________________________________________________________________
batch_normalization_1 (BatchNor (None, 64, 32, 64)   256         conv2d_1[0][0]                   
__________________________________________________________________________________________________
activation_1 (Activation)       (None, 64, 32, 64)   0           batch_normalization_1[0][0]      
__________________________________________________________________________________________________
conv2d_8 (Conv2D)               (None, 64, 32, 64)   4096        activation_1[0][0]               
__________________________________________________________________________________________________
depthwise_conv2d_6 (DepthwiseCo (None, 64, 32, 64)   576         conv2d_8[0][0]                   
__________________________________________________________________________________________________
batch_normalization_8 (BatchNor (None, 64, 32, 64)   256         depthwise_conv2d_6[0][0]         
__________________________________________________________________________________________________
activation_8 (Activation)       (None, 64, 32, 64)   0           batch_normalization_8[0][0]      
__________________________________________________________________________________________________
conv2d_5 (Conv2D)               (None, 64, 32, 64)   4096        activation_1[0][0]               
__________________________________________________________________________________________________
conv2d_9 (Conv2D)               (None, 64, 32, 64)   4096        activation_8[0][0]               
__________________________________________________________________________________________________
depthwise_conv2d_3 (DepthwiseCo (None, 64, 32, 64)   576         conv2d_5[0][0]                   
__________________________________________________________________________________________________
depthwise_conv2d_7 (DepthwiseCo (None, 64, 32, 64)   576         conv2d_9[0][0]                   
__________________________________________________________________________________________________
batch_normalization_5 (BatchNor (None, 64, 32, 64)   256         depthwise_conv2d_3[0][0]         
__________________________________________________________________________________________________
batch_normalization_9 (BatchNor (None, 64, 32, 64)   256         depthwise_conv2d_7[0][0]         
__________________________________________________________________________________________________
activation_5 (Activation)       (None, 64, 32, 64)   0           batch_normalization_5[0][0]      
__________________________________________________________________________________________________
activation_9 (Activation)       (None, 64, 32, 64)   0           batch_normalization_9[0][0]      
__________________________________________________________________________________________________
conv2d_3 (Conv2D)               (None, 64, 32, 64)   4096        activation_1[0][0]               
__________________________________________________________________________________________________
conv2d_6 (Conv2D)               (None, 64, 32, 64)   4096        activation_5[0][0]               
__________________________________________________________________________________________________
conv2d_10 (Conv2D)              (None, 64, 32, 64)   4096        activation_9[0][0]               
__________________________________________________________________________________________________
depthwise_conv2d_1 (DepthwiseCo (None, 64, 32, 64)   576         conv2d_3[0][0]                   
__________________________________________________________________________________________________
depthwise_conv2d_4 (DepthwiseCo (None, 64, 32, 64)   576         conv2d_6[0][0]                   
__________________________________________________________________________________________________
depthwise_conv2d_8 (DepthwiseCo (None, 64, 32, 64)   576         conv2d_10[0][0]                  
__________________________________________________________________________________________________
batch_normalization_3 (BatchNor (None, 64, 32, 64)   256         depthwise_conv2d_1[0][0]         
__________________________________________________________________________________________________
batch_normalization_6 (BatchNor (None, 64, 32, 64)   256         depthwise_conv2d_4[0][0]         
__________________________________________________________________________________________________
batch_normalization_10 (BatchNo (None, 64, 32, 64)   256         depthwise_conv2d_8[0][0]         
__________________________________________________________________________________________________
activation_3 (Activation)       (None, 64, 32, 64)   0           batch_normalization_3[0][0]      
__________________________________________________________________________________________________
activation_6 (Activation)       (None, 64, 32, 64)   0           batch_normalization_6[0][0]      
__________________________________________________________________________________________________
activation_10 (Activation)      (None, 64, 32, 64)   0           batch_normalization_10[0][0]     
__________________________________________________________________________________________________
conv2d_2 (Conv2D)               (None, 64, 32, 64)   4096        activation_1[0][0]               
__________________________________________________________________________________________________
conv2d_4 (Conv2D)               (None, 64, 32, 64)   4096        activation_3[0][0]               
__________________________________________________________________________________________________
conv2d_7 (Conv2D)               (None, 64, 32, 64)   4096        activation_6[0][0]               
__________________________________________________________________________________________________
conv2d_11 (Conv2D)              (None, 64, 32, 64)   4096        activation_10[0][0]              
__________________________________________________________________________________________________
depthwise_conv2d (DepthwiseConv (None, 64, 32, 64)   576         conv2d_2[0][0]                   
__________________________________________________________________________________________________
depthwise_conv2d_2 (DepthwiseCo (None, 64, 32, 64)   576         conv2d_4[0][0]                   
__________________________________________________________________________________________________
depthwise_conv2d_5 (DepthwiseCo (None, 64, 32, 64)   576         conv2d_7[0][0]                   
__________________________________________________________________________________________________
depthwise_conv2d_9 (DepthwiseCo (None, 64, 32, 64)   576         conv2d_11[0][0]                  
__________________________________________________________________________________________________
batch_normalization_2 (BatchNor (None, 64, 32, 64)   256         depthwise_conv2d[0][0]           
__________________________________________________________________________________________________
batch_normalization_4 (BatchNor (None, 64, 32, 64)   256         depthwise_conv2d_2[0][0]         
__________________________________________________________________________________________________
batch_normalization_7 (BatchNor (None, 64, 32, 64)   256         depthwise_conv2d_5[0][0]         
__________________________________________________________________________________________________
batch_normalization_11 (BatchNo (None, 64, 32, 64)   256         depthwise_conv2d_9[0][0]         
__________________________________________________________________________________________________
activation_2 (Activation)       (None, 64, 32, 64)   0           batch_normalization_2[0][0]      
__________________________________________________________________________________________________
activation_4 (Activation)       (None, 64, 32, 64)   0           batch_normalization_4[0][0]      
__________________________________________________________________________________________________
activation_7 (Activation)       (None, 64, 32, 64)   0           batch_normalization_7[0][0]      
__________________________________________________________________________________________________
activation_11 (Activation)      (None, 64, 32, 64)   0           batch_normalization_11[0][0]     
__________________________________________________________________________________________________
sequential (Sequential)         (None, 1, 1, None)   592         activation_2[0][0]               
                                                                 activation_4[0][0]               
                                                                 activation_7[0][0]               
                                                                 activation_11[0][0]              
__________________________________________________________________________________________________
multiply (Multiply)             (None, 64, 32, 64)   0           activation_2[0][0]               
                                                                 sequential[0][0]                 
__________________________________________________________________________________________________
multiply_1 (Multiply)           (None, 64, 32, 64)   0           activation_4[0][0]               
                                                                 sequential[1][0]                 
__________________________________________________________________________________________________
multiply_2 (Multiply)           (None, 64, 32, 64)   0           activation_7[0][0]               
                                                                 sequential[2][0]                 
__________________________________________________________________________________________________
multiply_3 (Multiply)           (None, 64, 32, 64)   0           activation_11[0][0]              
                                                                 sequential[3][0]                 
__________________________________________________________________________________________________
add (Add)                       (None, 64, 32, 64)   0           multiply[0][0]                   
                                                                 multiply_1[0][0]                 
                                                                 multiply_2[0][0]                 
                                                                 multiply_3[0][0]                 
__________________________________________________________________________________________________
conv2d_13 (Conv2D)              (None, 64, 32, 256)  16384       max_pooling2d[0][0]              
__________________________________________________________________________________________________
conv2d_12 (Conv2D)              (None, 64, 32, 256)  16384       add[0][0]                        
__________________________________________________________________________________________________
batch_normalization_14 (BatchNo (None, 64, 32, 256)  1024        conv2d_13[0][0]                  
__________________________________________________________________________________________________
batch_normalization_13 (BatchNo (None, 64, 32, 256)  1024        conv2d_12[0][0]                  
__________________________________________________________________________________________________
add_1 (Add)                     (None, 64, 32, 256)  0           batch_normalization_14[0][0]     
                                                                 batch_normalization_13[0][0]     
__________________________________________________________________________________________________
activation_14 (Activation)      (None, 64, 32, 256)  0           add_1[0][0]                      
__________________________________________________________________________________________________
conv2d_14 (Conv2D)              (None, 64, 32, 64)   16384       activation_14[0][0]              
__________________________________________________________________________________________________
batch_normalization_15 (BatchNo (None, 64, 32, 64)   256         conv2d_14[0][0]                  
__________________________________________________________________________________________________
activation_15 (Activation)      (None, 64, 32, 64)   0           batch_normalization_15[0][0]     
__________________________________________________________________________________________________
conv2d_21 (Conv2D)              (None, 64, 32, 64)   4096        activation_15[0][0]              
__________________________________________________________________________________________________
depthwise_conv2d_16 (DepthwiseC (None, 64, 32, 64)   576         conv2d_21[0][0]                  
__________________________________________________________________________________________________
batch_normalization_22 (BatchNo (None, 64, 32, 64)   256         depthwise_conv2d_16[0][0]        
__________________________________________________________________________________________________
activation_22 (Activation)      (None, 64, 32, 64)   0           batch_normalization_22[0][0]     
__________________________________________________________________________________________________
conv2d_18 (Conv2D)              (None, 64, 32, 64)   4096        activation_15[0][0]              
__________________________________________________________________________________________________
conv2d_22 (Conv2D)              (None, 64, 32, 64)   4096        activation_22[0][0]              
__________________________________________________________________________________________________
depthwise_conv2d_13 (DepthwiseC (None, 64, 32, 64)   576         conv2d_18[0][0]                  
__________________________________________________________________________________________________
depthwise_conv2d_17 (DepthwiseC (None, 64, 32, 64)   576         conv2d_22[0][0]                  
__________________________________________________________________________________________________
batch_normalization_19 (BatchNo (None, 64, 32, 64)   256         depthwise_conv2d_13[0][0]        
__________________________________________________________________________________________________
batch_normalization_23 (BatchNo (None, 64, 32, 64)   256         depthwise_conv2d_17[0][0]        
__________________________________________________________________________________________________
activation_19 (Activation)      (None, 64, 32, 64)   0           batch_normalization_19[0][0]     
__________________________________________________________________________________________________
activation_23 (Activation)      (None, 64, 32, 64)   0           batch_normalization_23[0][0]     
__________________________________________________________________________________________________
conv2d_16 (Conv2D)              (None, 64, 32, 64)   4096        activation_15[0][0]              
__________________________________________________________________________________________________
conv2d_19 (Conv2D)              (None, 64, 32, 64)   4096        activation_19[0][0]              
__________________________________________________________________________________________________
conv2d_23 (Conv2D)              (None, 64, 32, 64)   4096        activation_23[0][0]              
__________________________________________________________________________________________________
depthwise_conv2d_11 (DepthwiseC (None, 64, 32, 64)   576         conv2d_16[0][0]                  
__________________________________________________________________________________________________
depthwise_conv2d_14 (DepthwiseC (None, 64, 32, 64)   576         conv2d_19[0][0]                  
__________________________________________________________________________________________________
depthwise_conv2d_18 (DepthwiseC (None, 64, 32, 64)   576         conv2d_23[0][0]                  
__________________________________________________________________________________________________
batch_normalization_17 (BatchNo (None, 64, 32, 64)   256         depthwise_conv2d_11[0][0]        
__________________________________________________________________________________________________
batch_normalization_20 (BatchNo (None, 64, 32, 64)   256         depthwise_conv2d_14[0][0]        
__________________________________________________________________________________________________
batch_normalization_24 (BatchNo (None, 64, 32, 64)   256         depthwise_conv2d_18[0][0]        
__________________________________________________________________________________________________
activation_17 (Activation)      (None, 64, 32, 64)   0           batch_normalization_17[0][0]     
__________________________________________________________________________________________________
activation_20 (Activation)      (None, 64, 32, 64)   0           batch_normalization_20[0][0]     
__________________________________________________________________________________________________
activation_24 (Activation)      (None, 64, 32, 64)   0           batch_normalization_24[0][0]     
__________________________________________________________________________________________________
conv2d_15 (Conv2D)              (None, 64, 32, 64)   4096        activation_15[0][0]              
__________________________________________________________________________________________________
conv2d_17 (Conv2D)              (None, 64, 32, 64)   4096        activation_17[0][0]              
__________________________________________________________________________________________________
conv2d_20 (Conv2D)              (None, 64, 32, 64)   4096        activation_20[0][0]              
__________________________________________________________________________________________________
conv2d_24 (Conv2D)              (None, 64, 32, 64)   4096        activation_24[0][0]              
__________________________________________________________________________________________________
depthwise_conv2d_10 (DepthwiseC (None, 64, 32, 64)   576         conv2d_15[0][0]                  
__________________________________________________________________________________________________
depthwise_conv2d_12 (DepthwiseC (None, 64, 32, 64)   576         conv2d_17[0][0]                  
__________________________________________________________________________________________________
depthwise_conv2d_15 (DepthwiseC (None, 64, 32, 64)   576         conv2d_20[0][0]                  
__________________________________________________________________________________________________
depthwise_conv2d_19 (DepthwiseC (None, 64, 32, 64)   576         conv2d_24[0][0]                  
__________________________________________________________________________________________________
batch_normalization_16 (BatchNo (None, 64, 32, 64)   256         depthwise_conv2d_10[0][0]        
__________________________________________________________________________________________________
batch_normalization_18 (BatchNo (None, 64, 32, 64)   256         depthwise_conv2d_12[0][0]        
__________________________________________________________________________________________________
batch_normalization_21 (BatchNo (None, 64, 32, 64)   256         depthwise_conv2d_15[0][0]        
__________________________________________________________________________________________________
batch_normalization_25 (BatchNo (None, 64, 32, 64)   256         depthwise_conv2d_19[0][0]        
__________________________________________________________________________________________________
activation_16 (Activation)      (None, 64, 32, 64)   0           batch_normalization_16[0][0]     
__________________________________________________________________________________________________
activation_18 (Activation)      (None, 64, 32, 64)   0           batch_normalization_18[0][0]     
__________________________________________________________________________________________________
activation_21 (Activation)      (None, 64, 32, 64)   0           batch_normalization_21[0][0]     
__________________________________________________________________________________________________
activation_25 (Activation)      (None, 64, 32, 64)   0           batch_normalization_25[0][0]     
__________________________________________________________________________________________________
sequential_1 (Sequential)       (None, 1, 1, None)   592         activation_16[0][0]              
                                                                 activation_18[0][0]              
                                                                 activation_21[0][0]              
                                                                 activation_25[0][0]              
__________________________________________________________________________________________________
multiply_4 (Multiply)           (None, 64, 32, 64)   0           activation_16[0][0]              
                                                                 sequential_1[0][0]               
__________________________________________________________________________________________________
multiply_5 (Multiply)           (None, 64, 32, 64)   0           activation_18[0][0]              
                                                                 sequential_1[1][0]               
__________________________________________________________________________________________________
multiply_6 (Multiply)           (None, 64, 32, 64)   0           activation_21[0][0]              
                                                                 sequential_1[2][0]               
__________________________________________________________________________________________________
multiply_7 (Multiply)           (None, 64, 32, 64)   0           activation_25[0][0]              
                                                                 sequential_1[3][0]               
__________________________________________________________________________________________________
add_2 (Add)                     (None, 64, 32, 64)   0           multiply_4[0][0]                 
                                                                 multiply_5[0][0]                 
                                                                 multiply_6[0][0]                 
                                                                 multiply_7[0][0]                 
__________________________________________________________________________________________________
conv2d_25 (Conv2D)              (None, 64, 32, 256)  16384       add_2[0][0]                      
__________________________________________________________________________________________________
batch_normalization_27 (BatchNo (None, 64, 32, 256)  1024        conv2d_25[0][0]                  
__________________________________________________________________________________________________
add_3 (Add)                     (None, 64, 32, 256)  0           activation_14[0][0]              
                                                                 batch_normalization_27[0][0]     
__________________________________________________________________________________________________
activation_28 (Activation)      (None, 64, 32, 256)  0           add_3[0][0]                      
__________________________________________________________________________________________________
conv2d_26 (Conv2D)              (None, 64, 32, 256)  65536       activation_28[0][0]              
__________________________________________________________________________________________________
batch_normalization_28 (BatchNo (None, 64, 32, 256)  1024        conv2d_26[0][0]                  
__________________________________________________________________________________________________
activation_29 (Activation)      (None, 64, 32, 256)  0           batch_normalization_28[0][0]     
__________________________________________________________________________________________________
average_pooling2d (AveragePooli (None, 32, 16, 256)  0           activation_29[0][0]              
__________________________________________________________________________________________________
conv2d_27 (Conv2D)              (None, 32, 16, 96)   24576       average_pooling2d[0][0]          
__________________________________________________________________________________________________
batch_normalization_29 (BatchNo (None, 32, 16, 96)   384         conv2d_27[0][0]                  
__________________________________________________________________________________________________
activation_30 (Activation)      (None, 32, 16, 96)   0           batch_normalization_29[0][0]     
__________________________________________________________________________________________________
conv2d_34 (Conv2D)              (None, 32, 16, 96)   9216        activation_30[0][0]              
__________________________________________________________________________________________________
depthwise_conv2d_26 (DepthwiseC (None, 32, 16, 96)   864         conv2d_34[0][0]                  
__________________________________________________________________________________________________
batch_normalization_36 (BatchNo (None, 32, 16, 96)   384         depthwise_conv2d_26[0][0]        
__________________________________________________________________________________________________
activation_37 (Activation)      (None, 32, 16, 96)   0           batch_normalization_36[0][0]     
__________________________________________________________________________________________________
conv2d_31 (Conv2D)              (None, 32, 16, 96)   9216        activation_30[0][0]              
__________________________________________________________________________________________________
conv2d_35 (Conv2D)              (None, 32, 16, 96)   9216        activation_37[0][0]              
__________________________________________________________________________________________________
depthwise_conv2d_23 (DepthwiseC (None, 32, 16, 96)   864         conv2d_31[0][0]                  
__________________________________________________________________________________________________
depthwise_conv2d_27 (DepthwiseC (None, 32, 16, 96)   864         conv2d_35[0][0]                  
__________________________________________________________________________________________________
batch_normalization_33 (BatchNo (None, 32, 16, 96)   384         depthwise_conv2d_23[0][0]        
__________________________________________________________________________________________________
batch_normalization_37 (BatchNo (None, 32, 16, 96)   384         depthwise_conv2d_27[0][0]        
__________________________________________________________________________________________________
activation_34 (Activation)      (None, 32, 16, 96)   0           batch_normalization_33[0][0]     
__________________________________________________________________________________________________
activation_38 (Activation)      (None, 32, 16, 96)   0           batch_normalization_37[0][0]     
__________________________________________________________________________________________________
conv2d_29 (Conv2D)              (None, 32, 16, 96)   9216        activation_30[0][0]              
__________________________________________________________________________________________________
conv2d_32 (Conv2D)              (None, 32, 16, 96)   9216        activation_34[0][0]              
__________________________________________________________________________________________________
conv2d_36 (Conv2D)              (None, 32, 16, 96)   9216        activation_38[0][0]              
__________________________________________________________________________________________________
depthwise_conv2d_21 (DepthwiseC (None, 32, 16, 96)   864         conv2d_29[0][0]                  
__________________________________________________________________________________________________
depthwise_conv2d_24 (DepthwiseC (None, 32, 16, 96)   864         conv2d_32[0][0]                  
__________________________________________________________________________________________________
depthwise_conv2d_28 (DepthwiseC (None, 32, 16, 96)   864         conv2d_36[0][0]                  
__________________________________________________________________________________________________
batch_normalization_31 (BatchNo (None, 32, 16, 96)   384         depthwise_conv2d_21[0][0]        
__________________________________________________________________________________________________
batch_normalization_34 (BatchNo (None, 32, 16, 96)   384         depthwise_conv2d_24[0][0]        
__________________________________________________________________________________________________
batch_normalization_38 (BatchNo (None, 32, 16, 96)   384         depthwise_conv2d_28[0][0]        
__________________________________________________________________________________________________
activation_32 (Activation)      (None, 32, 16, 96)   0           batch_normalization_31[0][0]     
__________________________________________________________________________________________________
activation_35 (Activation)      (None, 32, 16, 96)   0           batch_normalization_34[0][0]     
__________________________________________________________________________________________________
activation_39 (Activation)      (None, 32, 16, 96)   0           batch_normalization_38[0][0]     
__________________________________________________________________________________________________
conv2d_28 (Conv2D)              (None, 32, 16, 96)   9216        activation_30[0][0]              
__________________________________________________________________________________________________
conv2d_30 (Conv2D)              (None, 32, 16, 96)   9216        activation_32[0][0]              
__________________________________________________________________________________________________
conv2d_33 (Conv2D)              (None, 32, 16, 96)   9216        activation_35[0][0]              
__________________________________________________________________________________________________
conv2d_37 (Conv2D)              (None, 32, 16, 96)   9216        activation_39[0][0]              
__________________________________________________________________________________________________
depthwise_conv2d_20 (DepthwiseC (None, 32, 16, 96)   864         conv2d_28[0][0]                  
__________________________________________________________________________________________________
depthwise_conv2d_22 (DepthwiseC (None, 32, 16, 96)   864         conv2d_30[0][0]                  
__________________________________________________________________________________________________
depthwise_conv2d_25 (DepthwiseC (None, 32, 16, 96)   864         conv2d_33[0][0]                  
__________________________________________________________________________________________________
depthwise_conv2d_29 (DepthwiseC (None, 32, 16, 96)   864         conv2d_37[0][0]                  
__________________________________________________________________________________________________
batch_normalization_30 (BatchNo (None, 32, 16, 96)   384         depthwise_conv2d_20[0][0]        
__________________________________________________________________________________________________
batch_normalization_32 (BatchNo (None, 32, 16, 96)   384         depthwise_conv2d_22[0][0]        
__________________________________________________________________________________________________
batch_normalization_35 (BatchNo (None, 32, 16, 96)   384         depthwise_conv2d_25[0][0]        
__________________________________________________________________________________________________
batch_normalization_39 (BatchNo (None, 32, 16, 96)   384         depthwise_conv2d_29[0][0]        
__________________________________________________________________________________________________
activation_31 (Activation)      (None, 32, 16, 96)   0           batch_normalization_30[0][0]     
__________________________________________________________________________________________________
activation_33 (Activation)      (None, 32, 16, 96)   0           batch_normalization_32[0][0]     
__________________________________________________________________________________________________
activation_36 (Activation)      (None, 32, 16, 96)   0           batch_normalization_35[0][0]     
__________________________________________________________________________________________________
activation_40 (Activation)      (None, 32, 16, 96)   0           batch_normalization_39[0][0]     
__________________________________________________________________________________________________
sequential_2 (Sequential)       (None, 1, 1, None)   1272        activation_31[0][0]              
                                                                 activation_33[0][0]              
                                                                 activation_36[0][0]              
                                                                 activation_40[0][0]              
__________________________________________________________________________________________________
multiply_8 (Multiply)           (None, 32, 16, 96)   0           activation_31[0][0]              
                                                                 sequential_2[0][0]               
__________________________________________________________________________________________________
multiply_9 (Multiply)           (None, 32, 16, 96)   0           activation_33[0][0]              
                                                                 sequential_2[1][0]               
__________________________________________________________________________________________________
multiply_10 (Multiply)          (None, 32, 16, 96)   0           activation_36[0][0]              
                                                                 sequential_2[2][0]               
__________________________________________________________________________________________________
multiply_11 (Multiply)          (None, 32, 16, 96)   0           activation_40[0][0]              
                                                                 sequential_2[3][0]               
__________________________________________________________________________________________________
add_4 (Add)                     (None, 32, 16, 96)   0           multiply_8[0][0]                 
                                                                 multiply_9[0][0]                 
                                                                 multiply_10[0][0]                
                                                                 multiply_11[0][0]                
__________________________________________________________________________________________________
conv2d_39 (Conv2D)              (None, 32, 16, 384)  98304       average_pooling2d[0][0]          
__________________________________________________________________________________________________
conv2d_38 (Conv2D)              (None, 32, 16, 384)  36864       add_4[0][0]                      
__________________________________________________________________________________________________
batch_normalization_42 (BatchNo (None, 32, 16, 384)  1536        conv2d_39[0][0]                  
__________________________________________________________________________________________________
batch_normalization_41 (BatchNo (None, 32, 16, 384)  1536        conv2d_38[0][0]                  
__________________________________________________________________________________________________
add_5 (Add)                     (None, 32, 16, 384)  0           batch_normalization_42[0][0]     
                                                                 batch_normalization_41[0][0]     
__________________________________________________________________________________________________
activation_43 (Activation)      (None, 32, 16, 384)  0           add_5[0][0]                      
__________________________________________________________________________________________________
conv2d_40 (Conv2D)              (None, 32, 16, 96)   36864       activation_43[0][0]              
__________________________________________________________________________________________________
batch_normalization_43 (BatchNo (None, 32, 16, 96)   384         conv2d_40[0][0]                  
__________________________________________________________________________________________________
activation_44 (Activation)      (None, 32, 16, 96)   0           batch_normalization_43[0][0]     
__________________________________________________________________________________________________
conv2d_47 (Conv2D)              (None, 32, 16, 96)   9216        activation_44[0][0]              
__________________________________________________________________________________________________
depthwise_conv2d_36 (DepthwiseC (None, 32, 16, 96)   864         conv2d_47[0][0]                  
__________________________________________________________________________________________________
batch_normalization_50 (BatchNo (None, 32, 16, 96)   384         depthwise_conv2d_36[0][0]        
__________________________________________________________________________________________________
activation_51 (Activation)      (None, 32, 16, 96)   0           batch_normalization_50[0][0]     
__________________________________________________________________________________________________
conv2d_44 (Conv2D)              (None, 32, 16, 96)   9216        activation_44[0][0]              
__________________________________________________________________________________________________
conv2d_48 (Conv2D)              (None, 32, 16, 96)   9216        activation_51[0][0]              
__________________________________________________________________________________________________
depthwise_conv2d_33 (DepthwiseC (None, 32, 16, 96)   864         conv2d_44[0][0]                  
__________________________________________________________________________________________________
depthwise_conv2d_37 (DepthwiseC (None, 32, 16, 96)   864         conv2d_48[0][0]                  
__________________________________________________________________________________________________
batch_normalization_47 (BatchNo (None, 32, 16, 96)   384         depthwise_conv2d_33[0][0]        
__________________________________________________________________________________________________
batch_normalization_51 (BatchNo (None, 32, 16, 96)   384         depthwise_conv2d_37[0][0]        
__________________________________________________________________________________________________
activation_48 (Activation)      (None, 32, 16, 96)   0           batch_normalization_47[0][0]     
__________________________________________________________________________________________________
activation_52 (Activation)      (None, 32, 16, 96)   0           batch_normalization_51[0][0]     
__________________________________________________________________________________________________
conv2d_42 (Conv2D)              (None, 32, 16, 96)   9216        activation_44[0][0]              
__________________________________________________________________________________________________
conv2d_45 (Conv2D)              (None, 32, 16, 96)   9216        activation_48[0][0]              
__________________________________________________________________________________________________
conv2d_49 (Conv2D)              (None, 32, 16, 96)   9216        activation_52[0][0]              
__________________________________________________________________________________________________
depthwise_conv2d_31 (DepthwiseC (None, 32, 16, 96)   864         conv2d_42[0][0]                  
__________________________________________________________________________________________________
depthwise_conv2d_34 (DepthwiseC (None, 32, 16, 96)   864         conv2d_45[0][0]                  
__________________________________________________________________________________________________
depthwise_conv2d_38 (DepthwiseC (None, 32, 16, 96)   864         conv2d_49[0][0]                  
__________________________________________________________________________________________________
batch_normalization_45 (BatchNo (None, 32, 16, 96)   384         depthwise_conv2d_31[0][0]        
__________________________________________________________________________________________________
batch_normalization_48 (BatchNo (None, 32, 16, 96)   384         depthwise_conv2d_34[0][0]        
__________________________________________________________________________________________________
batch_normalization_52 (BatchNo (None, 32, 16, 96)   384         depthwise_conv2d_38[0][0]        
__________________________________________________________________________________________________
activation_46 (Activation)      (None, 32, 16, 96)   0           batch_normalization_45[0][0]     
__________________________________________________________________________________________________
activation_49 (Activation)      (None, 32, 16, 96)   0           batch_normalization_48[0][0]     
__________________________________________________________________________________________________
activation_53 (Activation)      (None, 32, 16, 96)   0           batch_normalization_52[0][0]     
__________________________________________________________________________________________________
conv2d_41 (Conv2D)              (None, 32, 16, 96)   9216        activation_44[0][0]              
__________________________________________________________________________________________________
conv2d_43 (Conv2D)              (None, 32, 16, 96)   9216        activation_46[0][0]              
__________________________________________________________________________________________________
conv2d_46 (Conv2D)              (None, 32, 16, 96)   9216        activation_49[0][0]              
__________________________________________________________________________________________________
conv2d_50 (Conv2D)              (None, 32, 16, 96)   9216        activation_53[0][0]              
__________________________________________________________________________________________________
depthwise_conv2d_30 (DepthwiseC (None, 32, 16, 96)   864         conv2d_41[0][0]                  
__________________________________________________________________________________________________
depthwise_conv2d_32 (DepthwiseC (None, 32, 16, 96)   864         conv2d_43[0][0]                  
__________________________________________________________________________________________________
depthwise_conv2d_35 (DepthwiseC (None, 32, 16, 96)   864         conv2d_46[0][0]                  
__________________________________________________________________________________________________
depthwise_conv2d_39 (DepthwiseC (None, 32, 16, 96)   864         conv2d_50[0][0]                  
__________________________________________________________________________________________________
batch_normalization_44 (BatchNo (None, 32, 16, 96)   384         depthwise_conv2d_30[0][0]        
__________________________________________________________________________________________________
batch_normalization_46 (BatchNo (None, 32, 16, 96)   384         depthwise_conv2d_32[0][0]        
__________________________________________________________________________________________________
batch_normalization_49 (BatchNo (None, 32, 16, 96)   384         depthwise_conv2d_35[0][0]        
__________________________________________________________________________________________________
batch_normalization_53 (BatchNo (None, 32, 16, 96)   384         depthwise_conv2d_39[0][0]        
__________________________________________________________________________________________________
activation_45 (Activation)      (None, 32, 16, 96)   0           batch_normalization_44[0][0]     
__________________________________________________________________________________________________
activation_47 (Activation)      (None, 32, 16, 96)   0           batch_normalization_46[0][0]     
__________________________________________________________________________________________________
activation_50 (Activation)      (None, 32, 16, 96)   0           batch_normalization_49[0][0]     
__________________________________________________________________________________________________
activation_54 (Activation)      (None, 32, 16, 96)   0           batch_normalization_53[0][0]     
__________________________________________________________________________________________________
sequential_3 (Sequential)       (None, 1, 1, None)   1272        activation_45[0][0]              
                                                                 activation_47[0][0]              
                                                                 activation_50[0][0]              
                                                                 activation_54[0][0]              
__________________________________________________________________________________________________
multiply_12 (Multiply)          (None, 32, 16, 96)   0           activation_45[0][0]              
                                                                 sequential_3[0][0]               
__________________________________________________________________________________________________
multiply_13 (Multiply)          (None, 32, 16, 96)   0           activation_47[0][0]              
                                                                 sequential_3[1][0]               
__________________________________________________________________________________________________
multiply_14 (Multiply)          (None, 32, 16, 96)   0           activation_50[0][0]              
                                                                 sequential_3[2][0]               
__________________________________________________________________________________________________
multiply_15 (Multiply)          (None, 32, 16, 96)   0           activation_54[0][0]              
                                                                 sequential_3[3][0]               
__________________________________________________________________________________________________
add_6 (Add)                     (None, 32, 16, 96)   0           multiply_12[0][0]                
                                                                 multiply_13[0][0]                
                                                                 multiply_14[0][0]                
                                                                 multiply_15[0][0]                
__________________________________________________________________________________________________
conv2d_51 (Conv2D)              (None, 32, 16, 384)  36864       add_6[0][0]                      
__________________________________________________________________________________________________
batch_normalization_55 (BatchNo (None, 32, 16, 384)  1536        conv2d_51[0][0]                  
__________________________________________________________________________________________________
add_7 (Add)                     (None, 32, 16, 384)  0           activation_43[0][0]              
                                                                 batch_normalization_55[0][0]     
__________________________________________________________________________________________________
activation_57 (Activation)      (None, 32, 16, 384)  0           add_7[0][0]                      
__________________________________________________________________________________________________
conv2d_52 (Conv2D)              (None, 32, 16, 384)  147456      activation_57[0][0]              
__________________________________________________________________________________________________
batch_normalization_56 (BatchNo (None, 32, 16, 384)  1536        conv2d_52[0][0]                  
__________________________________________________________________________________________________
activation_58 (Activation)      (None, 32, 16, 384)  0           batch_normalization_56[0][0]     
__________________________________________________________________________________________________
average_pooling2d_1 (AveragePoo (None, 16, 8, 384)   0           activation_58[0][0]              
__________________________________________________________________________________________________
conv2d_53 (Conv2D)              (None, 16, 8, 128)   49152       average_pooling2d_1[0][0]        
__________________________________________________________________________________________________
batch_normalization_57 (BatchNo (None, 16, 8, 128)   512         conv2d_53[0][0]                  
__________________________________________________________________________________________________
activation_59 (Activation)      (None, 16, 8, 128)   0           batch_normalization_57[0][0]     
__________________________________________________________________________________________________
conv2d_60 (Conv2D)              (None, 16, 8, 128)   16384       activation_59[0][0]              
__________________________________________________________________________________________________
depthwise_conv2d_46 (DepthwiseC (None, 16, 8, 128)   1152        conv2d_60[0][0]                  
__________________________________________________________________________________________________
batch_normalization_64 (BatchNo (None, 16, 8, 128)   512         depthwise_conv2d_46[0][0]        
__________________________________________________________________________________________________
activation_66 (Activation)      (None, 16, 8, 128)   0           batch_normalization_64[0][0]     
__________________________________________________________________________________________________
conv2d_57 (Conv2D)              (None, 16, 8, 128)   16384       activation_59[0][0]              
__________________________________________________________________________________________________
conv2d_61 (Conv2D)              (None, 16, 8, 128)   16384       activation_66[0][0]              
__________________________________________________________________________________________________
depthwise_conv2d_43 (DepthwiseC (None, 16, 8, 128)   1152        conv2d_57[0][0]                  
__________________________________________________________________________________________________
depthwise_conv2d_47 (DepthwiseC (None, 16, 8, 128)   1152        conv2d_61[0][0]                  
__________________________________________________________________________________________________
batch_normalization_61 (BatchNo (None, 16, 8, 128)   512         depthwise_conv2d_43[0][0]        
__________________________________________________________________________________________________
batch_normalization_65 (BatchNo (None, 16, 8, 128)   512         depthwise_conv2d_47[0][0]        
__________________________________________________________________________________________________
activation_63 (Activation)      (None, 16, 8, 128)   0           batch_normalization_61[0][0]     
__________________________________________________________________________________________________
activation_67 (Activation)      (None, 16, 8, 128)   0           batch_normalization_65[0][0]     
__________________________________________________________________________________________________
conv2d_55 (Conv2D)              (None, 16, 8, 128)   16384       activation_59[0][0]              
__________________________________________________________________________________________________
conv2d_58 (Conv2D)              (None, 16, 8, 128)   16384       activation_63[0][0]              
__________________________________________________________________________________________________
conv2d_62 (Conv2D)              (None, 16, 8, 128)   16384       activation_67[0][0]              
__________________________________________________________________________________________________
depthwise_conv2d_41 (DepthwiseC (None, 16, 8, 128)   1152        conv2d_55[0][0]                  
__________________________________________________________________________________________________
depthwise_conv2d_44 (DepthwiseC (None, 16, 8, 128)   1152        conv2d_58[0][0]                  
__________________________________________________________________________________________________
depthwise_conv2d_48 (DepthwiseC (None, 16, 8, 128)   1152        conv2d_62[0][0]                  
__________________________________________________________________________________________________
batch_normalization_59 (BatchNo (None, 16, 8, 128)   512         depthwise_conv2d_41[0][0]        
__________________________________________________________________________________________________
batch_normalization_62 (BatchNo (None, 16, 8, 128)   512         depthwise_conv2d_44[0][0]        
__________________________________________________________________________________________________
batch_normalization_66 (BatchNo (None, 16, 8, 128)   512         depthwise_conv2d_48[0][0]        
__________________________________________________________________________________________________
activation_61 (Activation)      (None, 16, 8, 128)   0           batch_normalization_59[0][0]     
__________________________________________________________________________________________________
activation_64 (Activation)      (None, 16, 8, 128)   0           batch_normalization_62[0][0]     
__________________________________________________________________________________________________
activation_68 (Activation)      (None, 16, 8, 128)   0           batch_normalization_66[0][0]     
__________________________________________________________________________________________________
conv2d_54 (Conv2D)              (None, 16, 8, 128)   16384       activation_59[0][0]              
__________________________________________________________________________________________________
conv2d_56 (Conv2D)              (None, 16, 8, 128)   16384       activation_61[0][0]              
__________________________________________________________________________________________________
conv2d_59 (Conv2D)              (None, 16, 8, 128)   16384       activation_64[0][0]              
__________________________________________________________________________________________________
conv2d_63 (Conv2D)              (None, 16, 8, 128)   16384       activation_68[0][0]              
__________________________________________________________________________________________________
depthwise_conv2d_40 (DepthwiseC (None, 16, 8, 128)   1152        conv2d_54[0][0]                  
__________________________________________________________________________________________________
depthwise_conv2d_42 (DepthwiseC (None, 16, 8, 128)   1152        conv2d_56[0][0]                  
__________________________________________________________________________________________________
depthwise_conv2d_45 (DepthwiseC (None, 16, 8, 128)   1152        conv2d_59[0][0]                  
__________________________________________________________________________________________________
depthwise_conv2d_49 (DepthwiseC (None, 16, 8, 128)   1152        conv2d_63[0][0]                  
__________________________________________________________________________________________________
batch_normalization_58 (BatchNo (None, 16, 8, 128)   512         depthwise_conv2d_40[0][0]        
__________________________________________________________________________________________________
batch_normalization_60 (BatchNo (None, 16, 8, 128)   512         depthwise_conv2d_42[0][0]        
__________________________________________________________________________________________________
batch_normalization_63 (BatchNo (None, 16, 8, 128)   512         depthwise_conv2d_45[0][0]        
__________________________________________________________________________________________________
batch_normalization_67 (BatchNo (None, 16, 8, 128)   512         depthwise_conv2d_49[0][0]        
__________________________________________________________________________________________________
activation_60 (Activation)      (None, 16, 8, 128)   0           batch_normalization_58[0][0]     
__________________________________________________________________________________________________
activation_62 (Activation)      (None, 16, 8, 128)   0           batch_normalization_60[0][0]     
__________________________________________________________________________________________________
activation_65 (Activation)      (None, 16, 8, 128)   0           batch_normalization_63[0][0]     
__________________________________________________________________________________________________
activation_69 (Activation)      (None, 16, 8, 128)   0           batch_normalization_67[0][0]     
__________________________________________________________________________________________________
sequential_4 (Sequential)       (None, 1, 1, None)   2208        activation_60[0][0]              
                                                                 activation_62[0][0]              
                                                                 activation_65[0][0]              
                                                                 activation_69[0][0]              
__________________________________________________________________________________________________
multiply_16 (Multiply)          (None, 16, 8, 128)   0           activation_60[0][0]              
                                                                 sequential_4[0][0]               
__________________________________________________________________________________________________
multiply_17 (Multiply)          (None, 16, 8, 128)   0           activation_62[0][0]              
                                                                 sequential_4[1][0]               
__________________________________________________________________________________________________
multiply_18 (Multiply)          (None, 16, 8, 128)   0           activation_65[0][0]              
                                                                 sequential_4[2][0]               
__________________________________________________________________________________________________
multiply_19 (Multiply)          (None, 16, 8, 128)   0           activation_69[0][0]              
                                                                 sequential_4[3][0]               
__________________________________________________________________________________________________
add_8 (Add)                     (None, 16, 8, 128)   0           multiply_16[0][0]                
                                                                 multiply_17[0][0]                
                                                                 multiply_18[0][0]                
                                                                 multiply_19[0][0]                
__________________________________________________________________________________________________
conv2d_65 (Conv2D)              (None, 16, 8, 512)   196608      average_pooling2d_1[0][0]        
__________________________________________________________________________________________________
conv2d_64 (Conv2D)              (None, 16, 8, 512)   65536       add_8[0][0]                      
__________________________________________________________________________________________________
batch_normalization_70 (BatchNo (None, 16, 8, 512)   2048        conv2d_65[0][0]                  
__________________________________________________________________________________________________
batch_normalization_69 (BatchNo (None, 16, 8, 512)   2048        conv2d_64[0][0]                  
__________________________________________________________________________________________________
add_9 (Add)                     (None, 16, 8, 512)   0           batch_normalization_70[0][0]     
                                                                 batch_normalization_69[0][0]     
__________________________________________________________________________________________________
activation_72 (Activation)      (None, 16, 8, 512)   0           add_9[0][0]                      
__________________________________________________________________________________________________
conv2d_66 (Conv2D)              (None, 16, 8, 128)   65536       activation_72[0][0]              
__________________________________________________________________________________________________
batch_normalization_71 (BatchNo (None, 16, 8, 128)   512         conv2d_66[0][0]                  
__________________________________________________________________________________________________
activation_73 (Activation)      (None, 16, 8, 128)   0           batch_normalization_71[0][0]     
__________________________________________________________________________________________________
conv2d_73 (Conv2D)              (None, 16, 8, 128)   16384       activation_73[0][0]              
__________________________________________________________________________________________________
depthwise_conv2d_56 (DepthwiseC (None, 16, 8, 128)   1152        conv2d_73[0][0]                  
__________________________________________________________________________________________________
batch_normalization_78 (BatchNo (None, 16, 8, 128)   512         depthwise_conv2d_56[0][0]        
__________________________________________________________________________________________________
activation_80 (Activation)      (None, 16, 8, 128)   0           batch_normalization_78[0][0]     
__________________________________________________________________________________________________
conv2d_70 (Conv2D)              (None, 16, 8, 128)   16384       activation_73[0][0]              
__________________________________________________________________________________________________
conv2d_74 (Conv2D)              (None, 16, 8, 128)   16384       activation_80[0][0]              
__________________________________________________________________________________________________
depthwise_conv2d_53 (DepthwiseC (None, 16, 8, 128)   1152        conv2d_70[0][0]                  
__________________________________________________________________________________________________
depthwise_conv2d_57 (DepthwiseC (None, 16, 8, 128)   1152        conv2d_74[0][0]                  
__________________________________________________________________________________________________
batch_normalization_75 (BatchNo (None, 16, 8, 128)   512         depthwise_conv2d_53[0][0]        
__________________________________________________________________________________________________
batch_normalization_79 (BatchNo (None, 16, 8, 128)   512         depthwise_conv2d_57[0][0]        
__________________________________________________________________________________________________
activation_77 (Activation)      (None, 16, 8, 128)   0           batch_normalization_75[0][0]     
__________________________________________________________________________________________________
activation_81 (Activation)      (None, 16, 8, 128)   0           batch_normalization_79[0][0]     
__________________________________________________________________________________________________
conv2d_68 (Conv2D)              (None, 16, 8, 128)   16384       activation_73[0][0]              
__________________________________________________________________________________________________
conv2d_71 (Conv2D)              (None, 16, 8, 128)   16384       activation_77[0][0]              
__________________________________________________________________________________________________
conv2d_75 (Conv2D)              (None, 16, 8, 128)   16384       activation_81[0][0]              
__________________________________________________________________________________________________
depthwise_conv2d_51 (DepthwiseC (None, 16, 8, 128)   1152        conv2d_68[0][0]                  
__________________________________________________________________________________________________
depthwise_conv2d_54 (DepthwiseC (None, 16, 8, 128)   1152        conv2d_71[0][0]                  
__________________________________________________________________________________________________
depthwise_conv2d_58 (DepthwiseC (None, 16, 8, 128)   1152        conv2d_75[0][0]                  
__________________________________________________________________________________________________
batch_normalization_73 (BatchNo (None, 16, 8, 128)   512         depthwise_conv2d_51[0][0]        
__________________________________________________________________________________________________
batch_normalization_76 (BatchNo (None, 16, 8, 128)   512         depthwise_conv2d_54[0][0]        
__________________________________________________________________________________________________
batch_normalization_80 (BatchNo (None, 16, 8, 128)   512         depthwise_conv2d_58[0][0]        
__________________________________________________________________________________________________
activation_75 (Activation)      (None, 16, 8, 128)   0           batch_normalization_73[0][0]     
__________________________________________________________________________________________________
activation_78 (Activation)      (None, 16, 8, 128)   0           batch_normalization_76[0][0]     
__________________________________________________________________________________________________
activation_82 (Activation)      (None, 16, 8, 128)   0           batch_normalization_80[0][0]     
__________________________________________________________________________________________________
conv2d_67 (Conv2D)              (None, 16, 8, 128)   16384       activation_73[0][0]              
__________________________________________________________________________________________________
conv2d_69 (Conv2D)              (None, 16, 8, 128)   16384       activation_75[0][0]              
__________________________________________________________________________________________________
conv2d_72 (Conv2D)              (None, 16, 8, 128)   16384       activation_78[0][0]              
__________________________________________________________________________________________________
conv2d_76 (Conv2D)              (None, 16, 8, 128)   16384       activation_82[0][0]              
__________________________________________________________________________________________________
depthwise_conv2d_50 (DepthwiseC (None, 16, 8, 128)   1152        conv2d_67[0][0]                  
__________________________________________________________________________________________________
depthwise_conv2d_52 (DepthwiseC (None, 16, 8, 128)   1152        conv2d_69[0][0]                  
__________________________________________________________________________________________________
depthwise_conv2d_55 (DepthwiseC (None, 16, 8, 128)   1152        conv2d_72[0][0]                  
__________________________________________________________________________________________________
depthwise_conv2d_59 (DepthwiseC (None, 16, 8, 128)   1152        conv2d_76[0][0]                  
__________________________________________________________________________________________________
batch_normalization_72 (BatchNo (None, 16, 8, 128)   512         depthwise_conv2d_50[0][0]        
__________________________________________________________________________________________________
batch_normalization_74 (BatchNo (None, 16, 8, 128)   512         depthwise_conv2d_52[0][0]        
__________________________________________________________________________________________________
batch_normalization_77 (BatchNo (None, 16, 8, 128)   512         depthwise_conv2d_55[0][0]        
__________________________________________________________________________________________________
batch_normalization_81 (BatchNo (None, 16, 8, 128)   512         depthwise_conv2d_59[0][0]        
__________________________________________________________________________________________________
activation_74 (Activation)      (None, 16, 8, 128)   0           batch_normalization_72[0][0]     
__________________________________________________________________________________________________
activation_76 (Activation)      (None, 16, 8, 128)   0           batch_normalization_74[0][0]     
__________________________________________________________________________________________________
activation_79 (Activation)      (None, 16, 8, 128)   0           batch_normalization_77[0][0]     
__________________________________________________________________________________________________
activation_83 (Activation)      (None, 16, 8, 128)   0           batch_normalization_81[0][0]     
__________________________________________________________________________________________________
sequential_5 (Sequential)       (None, 1, 1, None)   2208        activation_74[0][0]              
                                                                 activation_76[0][0]              
                                                                 activation_79[0][0]              
                                                                 activation_83[0][0]              
__________________________________________________________________________________________________
multiply_20 (Multiply)          (None, 16, 8, 128)   0           activation_74[0][0]              
                                                                 sequential_5[0][0]               
__________________________________________________________________________________________________
multiply_21 (Multiply)          (None, 16, 8, 128)   0           activation_76[0][0]              
                                                                 sequential_5[1][0]               
__________________________________________________________________________________________________
multiply_22 (Multiply)          (None, 16, 8, 128)   0           activation_79[0][0]              
                                                                 sequential_5[2][0]               
__________________________________________________________________________________________________
multiply_23 (Multiply)          (None, 16, 8, 128)   0           activation_83[0][0]              
                                                                 sequential_5[3][0]               
__________________________________________________________________________________________________
add_10 (Add)                    (None, 16, 8, 128)   0           multiply_20[0][0]                
                                                                 multiply_21[0][0]                
                                                                 multiply_22[0][0]                
                                                                 multiply_23[0][0]                
__________________________________________________________________________________________________
conv2d_77 (Conv2D)              (None, 16, 8, 512)   65536       add_10[0][0]                     
__________________________________________________________________________________________________
batch_normalization_83 (BatchNo (None, 16, 8, 512)   2048        conv2d_77[0][0]                  
__________________________________________________________________________________________________
add_11 (Add)                    (None, 16, 8, 512)   0           activation_72[0][0]              
                                                                 batch_normalization_83[0][0]     
__________________________________________________________________________________________________
activation_86 (Activation)      (None, 16, 8, 512)   0           add_11[0][0]                     
__________________________________________________________________________________________________
conv2d_78 (Conv2D)              (None, 16, 8, 512)   262144      activation_86[0][0]              
__________________________________________________________________________________________________
batch_normalization_84 (BatchNo (None, 16, 8, 512)   2048        conv2d_78[0][0]                  
__________________________________________________________________________________________________
activation_87 (Activation)      (None, 16, 8, 512)   0           batch_normalization_84[0][0]     
__________________________________________________________________________________________________
global_average_pooling2d_6 (Glo (None, 512)          0           activation_87[0][0]              
__________________________________________________________________________________________________
dropout (Dropout)               (None, 512)          0           global_average_pooling2d_6[0][0] 
__________________________________________________________________________________________________
Logits (Dense)                  (None, 1000)         513000      dropout[0][0]                    
==================================================================================================
Total params: 2,440,952
Trainable params: 2,418,864
Non-trainable params: 22,088
__________________________________________________________________________________________________
None


tensorflow-gpu v1.15.4